…
2018-06-09 02:22:22.178001: W tensorflow/core/platform/cpu_feature_guard.cc:45] The TensorFlow library wasn't compiled to use AVX2 instructions, but these are available on your machine and could speed up CPU computations.
2018-06-09 02:22:22.178861: W tensorflow/core/platform/cpu_feature_guard.cc:45] The TensorFlow library wasn't compiled to use FMA instructions, but these are available on your machine and could speed up CPU computations.
__________________________________________________________________________________________________
Layer (type)                    Output Shape         Param #     Connected to
==================================================================================================
query (InputLayer)              (None, 140)          0
__________________________________________________________________________________________________
doc (InputLayer)                (None, 140)          0
__________________________________________________________________________________________________
embedding_1 (Embedding)         (None, 140, 50)      20084400    query[0][0]
                                                                 doc[0][0]
__________________________________________________________________________________________________
mm_q_embed_DOT_d_embed (Dot)    (None, 140, 140)     0           embedding_1[0][0]
                                                                 embedding_1[1][0]
__________________________________________________________________________________________________
mm_k_topk_mm (Lambda)           (None, 140, 20)      0           mm_q_embed_DOT_d_embed[0][0]
__________________________________________________________________________________________________
mm_k_Dense_5_mm_k (Dense)       (None, 140, 5)       105         mm_k_topk_mm[0][0]
__________________________________________________________________________________________________
mm_k_Dense_1_mm_k (Dense)       (None, 140, 1)       6           mm_k_Dense_5_mm_k[0][0]
__________________________________________________________________________________________________
w_g_Dense_1_q_embed (Dense)     (None, 140, 1)       51          embedding_1[0][0]
__________________________________________________________________________________________________
mm_k_dropout_Dropout_mm_k (Drop (None, 140, 1)       0           mm_k_Dense_1_mm_k[0][0]
__________________________________________________________________________________________________
g_Softmax_w_g (Lambda)          (None, 140)          0           w_g_Dense_1_q_embed[0][0]
__________________________________________________________________________________________________
mm_reshape_Reshape_maxlen_mm_k_ (None, 140)          0           mm_k_dropout_Dropout_mm_k[0][0]
__________________________________________________________________________________________________
g_Reshape_maxlen_w_g (Reshape)  (None, 140)          0           g_Softmax_w_g[0][0]
__________________________________________________________________________________________________
mean_mm_reshape_DOT_g (Dot)     (None, 1)            0           mm_reshape_Reshape_maxlen_mm_k_dr
                                                                 g_Reshape_maxlen_w_g[0][0]
__________________________________________________________________________________________________
out_Reshape_mean (Reshape)      (None, 1)            0           mean_mm_reshape_DOT_g[0][0]
==================================================================================================
Total params: 20,084,562
Trainable params: 162
Non-trainable params: 20,084,400
__________________________________________________________________________________________________
Epoch 1/10
17980/17980 [==============================] - 10s 575us/step - loss: 0.2947 - acc: 0.4976
…
